rnn_model.pth (torch, 855898 bytes, 7 tensors)

embedding.weight f4 [890, 128]
000000 61 98 9a 3e 3d 91 3f 3e 40 32 ee bd a2 a3 16 3f
       0.3019438 0.18707748 -0.11630678 0.58843434
000010 45 b0 a4 3f 12 96 5c 3f 14 50 6c 3f 10 43 11 3e
       1.2866293 0.8616649 0.9230969 0.14185739
000020 97 2b 1e bf 7c af 88 3f d6 df 47 bf de ad 75 bc
       -0.6178526 1.0678554 -0.7807592 -0.014995066
000030 bd 0c 8d bf 30 8b be bf 90 df 20 c0 51 fc 7f 3f
       -1.1019512 -1.4886227 -2.5136452 0.9999438
000040 d6 76 d4 bf 82 c4 45 c0 ab de c1 3d cf 9b 40 3f
       -1.6598766 -3.090119 0.09466299 0.75237745
000050 77 35 6c 3e c9 3d cd be 5c c6 d1 3c 8d ef c2 bf
       0.2306727 -0.400862 0.02560728 -1.5229355
000060 df a1 7e bf 51 e6 b9 bf f4 23 49 3f 94 8f 25 bf
       -0.99465746 -1.4523412 0.78570485 -0.6467221
000070 d0 01 9c 3f c7 06 c7 bf 3f e2 3d 3d 0d 3b c2 bf
       1.2188053 -1.5548943 0.046358343 -1.5174271
000080 4f e3 83 3f c5 65 62 be 34 77 bd 3d 4b 33 c7 bf
       1.0303744 -0.22109134 0.09251252 -1.5562528
000090 9f b8 64 3e 1f da 06 c0 31 99 a2 bc ed 0c 7d 3f
       0.22336052 -2.107063 -0.019848438 0.9884785
0000a0 7c d0 fc 3e 88 f3 a7 be 51 7c 83 be 95 b2 8d 3c
       0.4937781 -0.32802987 -0.25680783 0.017297069
0000b0 86 e4 c6 be 59 13 e5 be 24 3b c7 bf fd 79 f4 be
       -0.38846225 -0.44741324 -1.5564923 -0.4774932
0000c0 4d d0 76 3f cf c1 64 3f 64 b7 01 40 00 37 8a be
       0.9641159 0.8935823 2.0268183 -0.26995087
0000d0 bc 92 16 bf ae 64 35 be 9a ed 9c bf 0d 0f 19 3d
       -0.5881765 -0.17714188 -1.226001 0.03736787
0000e0 39 49 70 3f 86 94 f0 be f2 ce ed 3f 7b ba 56 bf
       0.9386173 -0.46988314 1.857878 -0.83878297
0000f0 35 d7 05 be 16 9e 7c 3f a9 7e 1e bf e3 7d 45 bf
       -0.13070376 0.9867872 -0.6191202 -0.7714521
000100 f2 7d dd be 69 e6 63 bf 4a fa 15 40 ed ed 23 c0
       -0.4326015 -0.89023453 2.3434014 -2.5613968
000110 75 85 69 bf 7e 6c ef bf e4 c2 5f be 13 d8 9f bf
       -0.91219264 -1.8704984 -0.21851689 -1.2487816
000120 2d 3b b7 bf fa fe a3 be b7 f5 69 3e 61 a6 59 bf
       -1.4314934 -0.3203047 0.22847639 -0.850195
000130 37 6b 95 3f 70 de e6 3e 27 15 58 bf 3d 68 a7 3f
       1.1673344 0.4509158 -0.84407276 1.3078686
000140 28 21 80 39 0b 95 77 bf b7 70 cb bf b4 89 59 bf
       0.00024438766 -0.96711797 -1.5893773 -0.84975743
000150 0d 66 9a bf dc c6 86 bf 76 44 ba bf 86 48 7e 3e
       -1.2062393 -1.0529437 -1.4552143 0.24832353
000160 4d 46 6b be f3 de 80 bf 26 18 c1 3d 2c 7e 1a 3d
       -0.22976036 -1.0068039 0.09428434 0.037717983
000170 fb 1e 60 be e9 01 56 3f e4 eb 08 40 ec 2d 15 be
       -0.21886818 0.83596665 2.1393976 -0.14568299
000180 58 df c2 bf 7c fb 8b 3f 0d 5d 02 bf 09 df 47 3f
       -1.5224409 1.0936122 -0.50923234 0.780747
000190 14 48 d6 3e 1d 3b ae 3f 31 c9 a7 bf 1e 79 2b 3f
       0.41851866 1.361179 -1.3108274 0.66981685
0001a0 b4 c9 91 bf 8e 1e c7 3e 37 28 b3 bf a3 8d 2e c0
       -1.138968 0.388905 -1.3996648 -2.7273948
0001b0 df e3 62 bf 05 4c a4 3e c7 38 1a 40 09 7d d8 be
       -0.88628954 0.32089248 2.4097154 -0.42282894
0001c0 31 22 a0 bf d2 7c 44 bf 82 ea a6 3f d2 66 e1 bf
       -1.2510434 -0.7675296 1.3040316 -1.7609503
0001d0 42 b9 8b 3f ac 35 cb 3e a3 e8 5a be b3 0f a4 3f
       1.0915911 0.39689386 -0.21377806 1.2817291
0001e0 34 90 4b bf 96 61 01 c0 2f c7 a8 be 13 c9 61 bf
       -0.7951691 -2.0215812 -0.32964465 -0.8819744
0001f0 1a 86 e7 bf 30 99 d4 3e 9a 9d 5e 3f a8 5c 19 c0
       -1.80878 0.41523123 0.8695923 -2.3962803
000200 4b e9 ec 3e 0b 26 9d 3f 25 e3 59 3f 87 29 b3 bd
       0.46271738 1.2277235 0.8511222 -0.08748155
000210 f8 5a f3 bf c9 08 98 bf 2b 2f e9 be 90 b3 2e bf
       -1.9012136 -1.1877681 -0.455438 -0.6824274
000220 80 8e 98 3f 65 47 69 3f b4 fd 86 3d e7 e8 f2 3e
       1.1918488 0.91124564 0.06591359 0.47443315
000230 05 d8 f4 3e b3 f4 a7 3f d6 79 32 bf c4 3d cb be
       0.4782106 1.3121551 -0.69717157 -0.3969556
000240 00 69 e3 3f ca 70 ff bf 71 9d 4f 3f a4 54 26 be
       1.7766418 -1.9956295 0.8109961 -0.16243225
000250 8e 68 05 c0 50 8b 07 3e 12 a7 17 3f 74 14 76 3f
       -2.0845065 0.13236737 0.59239304 0.9612496
000260 64 d6 70 3f 8f 4d cd bf e4 87 8a bf 1a ff 28 bf
       0.94077134 -1.6039294 -1.082272 -0.66014254
000270 26 70 a7 3e 4f 13 90 3f e6 89 2f 3e f4 a1 af 3f
       0.3270275 1.1255893 0.17142448 1.3721299
000280 fc f3 ee bf 03 23 8c be 04 6a 8b 3e 46 f4 50 3e
       -1.8668208 -0.27370462 0.2722932 0.20405683
000290 7e 1c 63 bf f1 a8 65 bb 0a 4c 27 be 4c 74 08 bf
       -0.8871535 -0.0035043324 -0.163376 -0.53302455
0002a0 8f d7 9f be 1d e1 53 bf f3 96 0a bf f8 bf 95 bf
       -0.31219146 -0.8276537 -0.5413658 -1.1699209
0002b0 91 17 97 3f 77 48 b6 be bf eb 42 bf 11 9d da 3f
       1.1804067 -0.3560216 -0.7614097 1.7079183
0002c0 c7 98 5d bf 0d a6 96 3e d1 e8 1f 3f 4c c9 dd 3f
       -0.86561245 0.29423562 0.62464625 1.7327056
0002d0 a5 08 04 bf 3e 30 c3 3f 41 47 32 3f 2b fc 52 be
       -0.5157569 1.5249097 0.69639975 -0.20604007
0002e0 ad a8 0e bf 79 ec e5 3e f0 bd 86 3f d4 be 48 bd
       -0.5572613 0.44906977 1.0526714 -0.049010113
0002f0 c1 6f 80 3f 83 6b ae 3c b4 47 4d be c0 3e b2 3f
       1.0034105 0.0212915 -0.20046884 1.39254
000300 c9 42 4b 3f ee f3 5f bf 36 0d bf be 9b 38 8e 3f
       0.7939878 -0.8748158 -0.37314767 1.1111025
000310 c1 a6 17 be 2b 5f 8a 3f 80 17 d1 be a3 16 fc be
       -0.14809705 1.0810293 -0.40838242 -0.4923602
000320 38 77 a0 bf 52 b0 01 40 22 f7 72 3b 58 60 4d 3f
       -1.2536383 2.0263867 0.0037073572 0.80225134
000330 70 64 07 bf eb 4f 89 bf b2 cf 13 bf 5f 03 aa 3e
       -0.5288763 -1.0727514 -0.5773879 0.33205697
000340 2d 05 a2 3f dc 09 e8 be f6 74 8d 3e d6 6c 57 3f
       1.265783 -0.45320022 0.27628297 0.84150445
000350 57 91 29 bd 03 82 82 3d 30 10 c7 3f 10 51 00 bf
       -0.041398373 0.06372454 1.5551815 -0.5012369
000360 54 97 7c 3f 9b c3 64 bc 2e 33 a5 3d 95 cc 96 3e
       0.9866841 -0.013962652 0.080664024 0.2945296
000370 6b 07 fc 3e 0b e3 87 3e bf c4 72 bf 74 03 8b bf
       0.4922441 0.26540408 -0.9483146 -1.0860429
000380 1a 87 35 bf 86 cc be 3e 16 69 05 be 69 51 bd bd
       -0.70909274 0.37265414 -0.13028368 -0.092440434
000390 11 13 86 be 68 18 d0 3d de a5 38 be f0 05 6f be
       -0.26186422 0.10160905 -0.18032023 -0.23342109
0003a0 7a 99 80 3f e3 f5 65 bf 8c 47 cd be a1 99 8c 3e
       1.0046837 -0.8982832 -0.40093648 0.2746096
0003b0 b7 9a fe 3e d8 2a 93 bf e0 c7 ec be 7a 30 df bf
       0.49727413 -1.149745 -0.46246243 -1.7436669
0003c0 01 b0 aa 3f df 7c 72 bf c0 6d 71 3f 5b c7 41 bd
       1.3334962 -0.9472179 0.9430809 -0.04730926
0003d0 ce bd ec 3c 92 60 5e bf 20 2a 95 3e 42 3f 28 bf
       0.0288991 -0.86866105 0.291337 -0.65721524
0003e0 1e 4b 07 40 27 77 0e bf 81 80 53 3f 9a bc af 3f
       2.1139598 -0.5565056 0.82617956 1.3729432
0003f0 47 80 26 3f 14 a1 4e bf 4c 70 e8 3e 58 23 0b bf
       0.65039486 -0.80714536 0.45398176 -0.54350805

rnn.weight_ih_l0 f4 [256, 128]
000000 23 8f 51 3d 4f 93 8c 3d 4c a3 c2 3c 13 4a f5 bc
       0.051161896 0.068640344 0.023759507 -0.029942548
000010 d2 56 12 3d 00 4f 79 bd 92 cc d5 ba bb 9c 3e 3d
       0.03572733 -0.060866356 -0.0016311577 0.04653619
000020 4d cf 2d bd c5 b3 44 3d 91 66 2f bd 01 94 41 bd
       -0.042434026 0.048023004 -0.042822424 -0.04726029
000030 9c 7a 29 bd b6 d8 d3 bc d3 e1 46 bd 16 9c fa bb
       -0.041376695 -0.025860172 -0.048555207 -0.0076480014
000040 23 df 02 3d d0 bd e9 bb af f3 18 bd 84 6a 48 bd
       0.03195108 -0.007133223 -0.03734177 -0.048929706
000050 a3 8d 11 3d fb 85 27 3d 46 97 10 bd 08 b8 dd bc
       0.035535466 0.040899258 -0.035300516 -0.027065292
000060 07 0e a0 bc 5e b7 f9 3c 61 5a 15 bc 61 64 98 3d
       -0.019537939 0.030482944 -0.009115786 0.07441021
000070 a9 4f 86 3d 08 ed 26 bd 31 e3 0a bd 55 59 97 bc
       0.06558163 -0.040753394 -0.033908073 -0.018475214
000080 cb 48 70 3c 85 da 5f bd 20 2b 0d bd b6 fc 1b ba
       0.014665793 -0.054651756 -0.034464955 -0.00059504376
000090 04 ad aa 3c e8 42 de bc 8f e6 34 3b 86 91 9d bc
       0.020834453 -0.027131513 0.0027603244 -0.01923443
0000a0 f5 03 5d bc 65 56 b6 bc 6a a4 92 3d fe 57 df bb
       -0.013489713 -0.022257993 0.07160266 -0.0068159094
0000b0 0a e6 12 3d 0a e9 dc bc cf 9b 95 bd 0e 61 37 3d
       0.035863914 -0.02696659 -0.07305109 0.044770293
0000c0 ef 0f 99 3c c7 f3 be bc cb 4b 68 3d 5f 91 30 bd
       0.018684356 -0.023309601 0.056712907 -0.043107387
0000d0 51 99 e7 bc a2 ee 56 bc 42 10 b1 3c 42 75 3f 3d
       -0.02827135 -0.013118418 0.021614198 0.046742685
0000e0 d2 d3 82 bb b7 b2 9b bd da 55 f9 3c 0c 59 25 3d
       -0.003992536 -0.076024465 0.030436445 0.040368125
0000f0 2a da 4d 3d 2e 4e 3d bd b2 9e 7e bd a5 97 e8 bc
       0.050256886 -0.046217136 -0.062163062 -0.028392622
000100 80 24 0a 3d 7d 41 c2 bc 94 98 70 3d ca 86 71 bd
       0.033726215 -0.023712868 0.05873926 -0.058966435
000110 e9 3d 45 3d 13 f1 37 bd f7 0b ed bc b1 f8 6f 3d
       0.048154745 -0.04490764 -0.02893637 0.05858678
000120 22 f5 3d bd c8 1f 4e 3d 67 9a b0 bc 52 1f 1a bc
       -0.046376355 0.050323278 -0.021558 -0.009406881
000130 bc 21 ba bc ff 18 3c bd b2 16 be bb ca f7 83 3d
       -0.022721164 -0.045922276 -0.0058010453 0.064437464
000140 b4 cb 46 bd 6d eb 3a bd f7 f9 cf 3c 8e bc 0a 3d
       -0.04853411 -0.045634676 0.025387747 0.033871226
000150 ee f0 01 bd 26 60 20 3d 34 be 87 3d d3 57 f5 bc
       -0.03172391 0.039154194 0.06628075 -0.029949104
000160 51 ef a8 bd 19 f1 96 3c df b1 03 bd 61 a8 cb bb
       -0.08248771 0.018425511 -0.032152053 -0.0062151407
000170 8e d2 98 3c 10 cb a6 3c 6a 8e 11 bd fe 14 d6 3c
       0.018655088 0.0203605 -0.035536207 0.026133057
000180 4e 8f a5 bc d4 c2 b0 bb 97 ab 1c bd c4 e6 8d 3d
       -0.020209935 -0.005394319 -0.03824958 0.06928781
000190 a1 13 5b 3d ee 5b eb bc 10 00 8d 3c f5 9b 96 bd
       0.053485516 -0.028730359 0.017211944 -0.07353965
0001a0 45 bb 88 3c 06 99 c6 b9 ac 50 47 bd 00 aa f5 3c
       0.01669086 -0.00037879514 -0.04866092 0.029988289
0001b0 c5 4b 54 3d 71 8f b2 3c df 96 e5 3c a1 a2 64 bd
       0.051830072 0.021796914 0.028026043 -0.055819158
0001c0 4e 92 a2 3d b4 05 28 bd d7 1d 0d 3d e4 cb 1b bd
       0.07938062 -0.041021064 0.034452286 -0.038036242
0001d0 91 57 ae bc d9 fb 59 3d 07 68 06 bd 58 47 78 3d
       -0.02128199 0.053218696 -0.032814052 0.060614914
0001e0 2c 37 0e bd fb a8 f7 bb c6 6d 3f bd 17 24 67 3d
       -0.034720585 -0.007557986 -0.046735547 0.056430902
0001f0 e5 5c 46 3d 3d b5 c7 3c 89 73 47 bc 19 bf 07 3d
       0.048428435 0.024378413 -0.012173542 0.03314123
000200 54 fd 34 bd 34 a4 03 3d c9 fa 2f bd 9f ec 94 bc
       -0.044186905 0.03213902 -0.042963777 -0.018179236
000210 22 a6 08 3c e8 a9 3d bd 9f 75 65 bc 28 96 90 bc
       0.00834039 -0.046304613 -0.014005094 -0.017649725
000220 26 61 74 bd 91 66 91 3d d8 ec 36 bd bf 71 39 bc
       -0.05966296 0.07099641 -0.044659466 -0.011318623
000230 7f e1 b3 3c 74 90 ff 3c 14 b4 84 3c 37 b8 90 bc
       0.02195811 0.03119681 0.01619915 -0.017665965
000240 d1 03 a0 3c 24 67 f3 bc d3 e0 d3 bc 6a 83 4a bd
       0.01953307 -0.029712267 -0.02586404 -0.049441732
000250 e7 8e c9 bc 96 f8 44 3d cb 1f 8f 3d 5a 39 58 3d
       -0.024604274 0.048088633 0.06988486 0.05278907
000260 1a 8a 16 3d d7 56 8f 3d 60 b0 44 bd e7 56 33 bb
       0.036752798 0.06998985 -0.048019767 -0.002736503
000270 49 f4 33 3d 60 55 8c 3c bc f9 c8 3b 25 40 f8 bb
       0.04393414 0.017130554 0.0061332863 -0.007576006
000280 e6 76 0a bd 3b 12 87 3d e3 a6 ae bc ed ce cc bc
       -0.033804797 0.06595274 -0.021319812 -0.025001014
000290 28 90 6f 3d 31 14 4a 3d 5d 5e 6a 3d e8 07 cc ba
       0.058487087 0.049335662 0.057218898 -0.0015566321
0002a0 ba 98 83 3d 7e c4 63 bd 95 4c bb bc f0 bc 4e bd
       0.06425615 -0.05560731 -0.022863666 -0.050473154
0002b0 1d bd 5e bd 15 bd 60 3d 16 34 5c bd 26 a8 15 bd
       -0.05437957 0.054867823 -0.05376061 -0.036537312
0002c0 22 2a 3a bd 43 05 6a bd d1 9f 4d 3d 1f a6 88 bd
       -0.045450337 -0.057133924 0.05020124 -0.0667231
0002d0 18 ca 0b bd e0 b0 99 bd d8 40 2b 3d c0 ec 15 bd
       -0.03412828 -0.07504439 0.041809887 -0.036602736
0002e0 b3 33 07 3c 3b ea 56 3d 3b 9c 1b bc 69 32 d7 3c
       0.008252072 0.052469473 -0.009497697 0.026269155
0002f0 fb 48 a0 3c d6 05 3f bd ca 12 1d bd 2c aa 9d 3b
       0.01956605 -0.046636425 -0.038347997 0.004811546
000300 42 97 b0 bc b2 72 1d bd 2e fd cf 3c b1 22 99 bc
       -0.0215565 -0.03843946 0.02538928 -0.0186933
000310 52 6e a1 3a c1 fc 05 bd ca f2 4e bd 8d 31 5f bd
       0.0012316203 -0.032711748 -0.05052451 -0.054490615
000320 ed 73 6d 3d 90 bb cf 3c 97 dd de bc cb 9e e5 3b
       0.057971884 0.025357991 -0.027205272 0.007007455
000330 f7 07 18 3d a1 ad 42 3c 0e 74 9e bc d6 ae 3d 3d
       0.03711697 0.011882217 -0.019342449 0.046309315
000340 0b 0b 73 bd 54 58 27 3d 6a a2 59 3d 35 62 48 bd
       -0.059336703 0.04085572 0.053133406 -0.048921783
000350 4e 17 d3 3c 37 a2 61 3d 17 6b 8b 3d 8a 09 19 bc
       0.025767948 0.05508634 0.06807535 -0.009340653
000360 b4 68 ba bc 49 0b 23 bd 7f 26 2e bd 25 e9 d3 3a
       -0.022755004 -0.039805684 -0.04251718 0.0016167505
000370 cd a0 85 bd 4e e4 9f 3a c8 5b 88 bc 81 f3 06 3d
       -0.06524811 0.0012198777 -0.016645327 0.032947067
000380 3b 13 01 bd af 58 a0 3c c2 48 18 3b 69 91 d7 3c
       -0.03151248 0.019573538 0.0023236726 0.026314454
000390 09 8c 14 3c ed 6a 35 bd 49 2b 76 bd 47 b9 f9 3c
       0.00906659 -0.044291425 -0.060099874 0.030483855
0003a0 c5 f0 8c bb 3f d8 f3 3c c7 44 d2 3c 60 63 49 bd
       -0.004301163 0.0297662 0.025667561 -0.049167037
0003b0 c4 8d c9 3c 88 82 01 bd b7 09 3f bd 99 6d 45 bd
       0.024603732 -0.031618625 -0.046640124 -0.048200224
0003c0 90 99 88 3d 9b 70 59 bd 63 83 a9 bd 46 35 7f bd
       0.06669915 -0.053085905 -0.08277013 -0.062306665
0003d0 56 f0 c1 38 6f 53 5d bc 39 fc 24 3d 0d 6a 17 bd
       9.247723e-05 -0.013508662 0.0402796 -0.036966372
0003e0 42 ae 99 bc 69 7c 2f 3d 1b a1 00 bd 7b 07 61 3d
       -0.01875985 0.042843256 -0.031403642 0.054938775
0003f0 95 ea 57 bd 50 db 56 bd 03 62 90 bd 92 7e 87 3b
       -0.05271395 -0.052455246 -0.07049944 0.0041349614

rnn.weight_hh_l0 f4 [256, 256]
000000 e1 b2 88 3d 29 03 3b bd 98 a7 62 bd 89 58 ec bb
       0.066747434 -0.04565731 -0.05533561 -0.0072127027
000010 16 cf 67 bc 5b f4 82 3b d8 a6 fc 3a 69 36 08 3d
       -0.014148494 0.0039964146 0.0019275798 0.033255015
000020 2d b7 60 bd 71 00 82 bd 0f 01 45 bc 58 a4 3a bd
       -0.05486219 -0.063477404 -0.012024178 -0.045566887
000030 45 60 38 3c 2f f1 db 3c e9 6b 15 bd a2 46 0e bd
       0.011253421 0.026848404 -0.036479864 -0.03473533
000040 f0 96 1d bd a9 23 73 3d d8 08 2f bd fd 04 32 bd
       -0.038474023 0.05936018 -0.042733043 -0.04346179
000050 a4 ae 47 3d 52 2e 9f bb e8 9a 9b bc 10 eb 54 3b
       0.048750535 -0.0048578167 -0.018994763 0.003248874
000060 1f b3 ff 3c 63 00 87 bc 7b b4 23 3c a7 4a 29 bd
       0.031213341 -0.016479677 0.00999176 -0.04133096
000070 09 69 cd bc d4 ff 12 3d 19 3e e1 3b b1 21 5a 3d
       -0.025074499 0.035888508 0.0068738577 0.053254787
000080 09 63 5a bd c8 b7 2d bd 48 17 07 bd 6b 73 3e 3d
       -0.053317104 -0.042411596 -0.032981187 0.04649679
000090 87 08 1c 3b d8 65 44 bd 8f 2e 51 bd 8a c6 3f bd
       0.0023808794 -0.04794869 -0.051069792 -0.0468202
0000a0 c0 ff a3 3c 86 da 1e bc 5d 04 16 3c 02 5d 00 3d
       0.020019412 -0.009695655 0.009156314 0.0313387
0000b0 10 33 a3 bc b8 eb ef bc 51 54 56 3d 50 ce 32 3d
       -0.01992181 -0.029287204 0.052326504 0.043653786
0000c0 36 65 0a 3d 4c c8 2d bd 2f 03 65 3d 3c f6 29 bc
       0.03378793 -0.042427346 0.05591124 -0.010373648
0000d0 b0 86 2f bd af db d3 bc f5 c4 bb ba 40 e0 35 3d
       -0.042853057 -0.02586159 -0.0014325666 0.044403315
0000e0 d8 60 73 3d 6b 3a dd bc 63 31 8d bd 92 23 54 3d
       0.05941853 -0.027005395 -0.068941854 0.051791735
0000f0 3f 52 49 3c 9c 28 1a bd 14 e1 aa 3c c0 e8 a8 bb
       0.012287675 -0.037636384 0.020859279 -0.005154699
000100 82 a4 48 3c 8d 46 1a bd 64 ba 91 3d 04 d0 fc bb
       0.012246253 -0.03766494 0.07115629 -0.007715227
000110 1a 81 9a bc d3 87 d0 3c 9a 24 db bc 36 89 36 bd
       -0.018860389 0.025455391 -0.026750851 -0.04456445
000120 a2 9a 0f bd b6 50 66 bd f9 01 12 3c 96 c7 ba 3b
       -0.03505958 -0.056229316 0.008911603 0.005700062
000130 4b f0 6a 39 ae 44 54 bd 46 49 d1 3c 52 3a 0d bd
       0.00022405495 -0.05182331 0.025547635 -0.034479447
000140 80 68 a4 bc 61 c2 c3 b9 eb 9b 09 bd 05 00 65 3d
       -0.02006936 -0.00037338122 -0.03359596 0.05590822
000150 45 1a 16 bd ed f2 13 3d b6 e3 8f bc 76 86 1c bd
       -0.036646146 0.036120344 -0.017564636 -0.03821417
000160 1c 74 9d 3c f3 2c 20 3d 03 ca c0 bc ae aa 48 3d
       0.019220404 0.039105367 -0.023533827 0.048990898
000170 7e e2 a9 bc 81 0f 81 3d d7 3c 84 bd 0b 34 d6 b9
       -0.020737883 0.06301785 -0.06456917 -0.00040856036
000180 fb eb c4 bc e1 3b ff 3c ec c5 49 bc 4a 0b 73 3d
       -0.024038306 0.031156482 -0.012315255 0.059336938
000190 e3 98 b0 bc 47 5d 8e 3c 13 7b 20 3d 74 37 0e 3d
       -0.021557277 0.017378462 0.039179873 0.034720853
0001a0 72 b7 fd bc 33 73 2b bd 94 20 17 bd c6 ef 86 3c
       -0.030971263 -0.04185791 -0.036896303 0.016471755
0001b0 83 c6 09 bd 12 7c 6c bd 61 0b 75 bc 9a ca 3f bb
       -0.03363658 -0.05773551 -0.014956326 -0.0029265047
0001c0 2e c2 46 3d 78 4f 0d ba 87 9e 21 bd 9e ae f3 bc
       0.048525028 -0.0005390565 -0.039457824 -0.02974635
0001d0 fe 4a 08 bd 49 4b 5b 3d 23 45 9c bb b6 4e 25 3d
       -0.033274643 0.053538594 -0.004768984 0.040358268
0001e0 7d 07 84 3c f8 2a b3 bc bc 6b 25 bd 71 30 24 bd
       0.016116852 -0.021871075 -0.040385947 -0.04008526
0001f0 a7 a0 df bc 3b c5 83 bd bc d0 e5 bb 2a ec ef 3a
       -0.027298285 -0.06434103 -0.0070134085 0.0018304635
000200 b6 30 a1 3b b3 14 b3 3c 12 ff da 3c 52 5b d7 3b
       0.004919137 0.021860456 0.026732955 0.0065721655
000210 67 ce 5e bd 63 87 54 bc a5 96 6b bc d3 ea 28 bd
       -0.05439606 -0.012971732 -0.014379178 -0.04123957
000220 b2 77 f3 3c 0a 96 03 bd c6 87 e4 bc dc 9d df 3c
       0.029720161 -0.03212551 -0.027896773 0.027296953
000230 a9 75 21 bd aa 0b 96 3b 61 9c 8a 3d 63 63 1e bd
       -0.03941885 0.004579027 0.06768108 -0.038669
000240 9c e4 5f bd 06 36 59 3d 91 67 d8 3c d6 d7 a9 bc
       -0.05466138 0.053030036 0.026416572 -0.020732801
000250 30 b5 68 ba eb 78 ef 3c 33 28 43 bd ff 89 71 3d
       -0.00088770967 0.029232463 -0.04764576 0.058969494
000260 08 f9 71 bd a5 66 fc 3a d3 7c 50 3d 7a a2 e6 3c
       -0.059075385 0.0019256665 0.05090029 0.028153647
000270 06 ed 5c 3d 7e 6b 03 bd d4 a0 fc bc 16 ad 03 bd
       0.05393698 -0.032084934 -0.030838408 -0.03214749
000280 f4 19 a4 bc 0c 60 d3 3b 46 1a 06 3d 92 5c 12 3c
       -0.020031907 0.0064506587 0.0327399 0.008933203
000290 8b 8d b7 bc ac 4a 1b 39 54 28 1e bb 35 fd 1a bd
       -0.02240636 0.0001480977 -0.0024132924 -0.037839133
0002a0 6e bd 59 bd 7d a1 72 bd fd 2f 15 bd 5e 21 70 bd
       -0.05315917 -0.05923604 -0.03642272 -0.05862557
0002b0 51 1f 3f bd 27 07 49 3c d5 ef 6d 3d 68 4f 4e 3d
       -0.046660725 0.012269772 0.05809005 0.050368696
0002c0 25 7e 09 bd 72 d2 25 bc d4 c1 fe 3c 72 99 86 bd
       -0.033567566 -0.010120975 0.031098284 -0.06572236
0002d0 8c 2f c6 bc b5 57 a0 3c b2 79 42 bd eb 10 1d 3d
       -0.024192594 0.019573072 -0.04747934 0.038346212
0002e0 7c 69 ba 3b 9a f5 b4 bc c1 c7 49 bc 3c 44 24 3d
       0.0056888442 -0.022089768 -0.012315691 0.040104136
0002f0 22 2b b7 3b 86 d2 bd bc d1 ac ba bc 21 9e 66 3d
       0.0055898586 -0.023171674 -0.022787483 0.056303147
000300 72 22 1a bd 95 60 e8 bc da b2 65 3d 18 da 7a 3d
       -0.037630506 -0.028366366 0.05607877 0.061243147
000310 cf a7 5f bd 3f 5e b1 3c ab 7f 17 bd b5 6a 15 bd
       -0.054603394 0.021651385 -0.036986988 -0.036478717
000320 aa 78 17 3d fe f8 2d bd 97 f5 3c 3d f3 29 4c bd
       0.03698031 -0.042473786 0.04613265 -0.049844693
000330 5b a7 21 3b d6 aa 6a 3d c1 cd 46 bd 8c b2 39 3c
       0.0024666402 0.057291828 -0.048536066 0.011334073
000340 70 c3 b8 bb 18 9e 22 bd 6b c3 3a bc 5b 24 e2 3c
       -0.0056385323 -0.03970155 -0.01139913 0.027605226
000350 0e 07 21 3d ff 2c da bc ab 05 8d 3c ab 25 12 3b
       0.03931337 -0.026632784 0.017214617 0.0022300284
000360 26 1c 01 bd 96 29 5d bc 7b 3c 55 bd 42 e6 dd 3b
       -0.031520985 -0.013498684 -0.05205963 0.0067718336
000370 98 aa 13 3d 65 4d 5e bd ed 48 59 bc aa b7 10 bd
       0.036051363 -0.054273028 -0.013262016 -0.035331406
000380 f5 72 ed bb 27 b5 ba 3c e3 08 83 3d 58 0d bf 3c
       -0.00724637 0.022791458 0.063981794 0.023321792
000390 90 96 03 bc aa eb 00 3c 4e 2c 37 bd 59 01 8a 3c
       -0.008031502 0.007868687 -0.044719987 0.016846346
0003a0 f5 81 78 3d 55 54 7e 3a 5b 80 17 3d f6 ce 76 bb
       0.06067081 0.00097018975 0.036987644 -0.003765998
0003b0 de cf 87 bc 99 c6 11 3d 25 7e 24 bd db 78 32 bd
       -0.016578611 0.035589788 -0.040159363 -0.043572288
0003c0 e5 bd 21 bd 3e 74 3d 3d 14 e7 62 3c 45 a0 38 bd
       -0.03948774 0.046253435 0.013849039 -0.04507472
0003d0 79 1f ce 3c 5a 75 18 3c 21 ef 3f bd 79 31 cf 3b
       0.025161492 0.009305323 -0.04685891 0.0063230363
0003e0 2e ab b0 3c 68 c1 19 3d f1 6f 65 bd 15 41 4b bb
       0.021566 0.037537962 -0.05601496 -0.0031014134
0003f0 d4 f5 3e 3c c8 6f 4c bd a0 41 19 3d 97 16 26 3d
       0.01165529 -0.04991129 0.0374161 0.040548887

rnn.bias_ih_l0 f4 [256]
000000 7b db 1c bc d8 1e 62 bd 9f ef 95 bb 3c 01 a2 bb
       -0.009573813 -0.055205196 -0.004575684 -0.004943995
000010 b3 7e ee bc 98 ae 6f 3d 93 c1 bd 39 5b bf ba 3c
       -0.02911315 0.058516115 0.00036193113 0.022796324
000020 4d 59 2c 3d 74 bd 21 3c de bb 0c bd 1c 98 bc bc
       0.04207735 0.009871829 -0.03435885 -0.02302175
000030 fd eb 23 3d 6f cf 3f bd d7 d3 36 3d f9 62 36 bd
       0.040019978 -0.046828683 0.04463562 -0.04452798
000040 97 29 27 3d 3f 67 0d bd 63 49 08 bc 87 b3 8a 3c
       0.040811148 -0.03452229 -0.008318278 0.016931308
000050 ee f3 1e bd b1 ee 12 3c 93 e7 be bc 7d e4 14 3d
       -0.03880685 0.008968041 -0.023303783 0.036350716
000060 43 fc ea 3c 99 fa 6e bb bd 92 01 bd 7b ba 1c bd
       0.02868474 -0.0036465286 -0.03163408 -0.03826378
000070 ec 4b 28 bd 48 65 da bc 7d 51 4e bd 49 24 17 3d
       -0.04108803 -0.026659623 -0.050370682 0.03689984
000080 65 ad 42 3d 48 5a 35 3d be 73 32 3d b5 90 a3 bc
       0.047528643 0.044275552 0.04356741 -0.019966463
000090 20 a6 1e bb 93 66 fd bc 72 54 15 3d 99 7b a7 bc
       -0.0024207905 -0.0309327 0.036457486 -0.020444678
0000a0 6a 39 36 3c cc c2 ab 3b e7 95 05 3d 95 61 5d bd
       0.011122087 0.0052417275 0.03261366 -0.05404814
0000b0 ae 89 ab bc 73 6f 5e bd 77 29 ab 3c d7 b9 8b ba
       -0.020939674 -0.054305505 0.020893795 -0.0010660243
0000c0 a5 8b 4a bd fd 6a e7 3c 5b 78 2e 3d e5 8f 3e 3d
       -0.04944958 0.028249258 0.04259525 0.046523947
0000d0 34 34 39 bd 64 3f 0f bd b6 f8 05 3d 27 e6 05 3d
       -0.0452158 -0.034972563 0.032707892 0.032690194
0000e0 b1 37 a4 3c cc 26 81 3d e4 2d b6 bc d3 67 18 3b
       0.020046087 0.06306228 -0.02223868 0.0023255243
0000f0 52 b9 60 bb 13 9c 9b 3c 4f 30 c0 3c 22 c9 3f bc
       -0.0034290147 0.01899532 0.023460535 -0.011705669
000100 e9 03 ee bc 98 0b 2e bd e2 a3 89 3d dd 79 01 bd
       -0.029054599 -0.042491525 0.06720711 -0.03161036
000110 32 d8 47 bd b8 1d 0d bd e0 0b ce bc ba 5b 26 bd
       -0.048790164 -0.03445217 -0.025152147 -0.04061482
000120 58 e4 f0 3b 05 94 8d 3b be 67 8b 3b 09 04 b1 bb
       0.0073514394 0.004320624 0.0042543104 -0.0054020924
000130 dd a3 74 bd 6e c6 4f bd b9 56 d1 bb 93 d3 f1 bc
       -0.059726585 -0.050726347 -0.006388512 -0.029519832
000140 97 5c 58 bd 45 cd 61 3d 56 62 1c bd 11 08 4a bd
       -0.052822676 0.0551274 -0.038179718 -0.0493241
000150 fd ad 26 bd da a9 0b bd 47 9a 4d bd ab 26 1a bb
       -0.040693272 -0.03409753 -0.05019596 -0.0023521583
000160 08 f3 e5 3c 29 b4 85 3c 6f 36 63 bd c4 ee 88 bc
       0.028069988 0.016321259 -0.055471834 -0.016715415
000170 e4 83 36 3c 74 ca a5 3b e2 fc a8 3b 5b 04 94 bc
       0.011139844 0.0050595347 0.005157099 -0.018068483
000180 28 0f cb bc ff 35 fd 3c e4 94 9c bc 33 1e 8a 3c
       -0.0247875 0.030909536 -0.019113965 0.016860103
000190 b5 c4 1e 3c fd 51 2b 3c 48 96 98 3c 32 24 36 3d
       0.009690453 0.010456559 0.018626347 0.044468112
0001a0 53 ee 60 3d e9 6c 4f 3d f9 db be bb 36 7b 20 3d
       0.054914784 0.050640974 -0.0058245626 0.039180003
0001b0 7d 69 fc bc e3 57 8f b9 98 14 98 3c bd 11 6e bd
       -0.03081202 -0.00027340566 0.018564507 -0.058122385
0001c0 13 26 12 bd 13 3d f5 bc b9 27 32 3d ed a2 2a 3d
       -0.03568084 -0.029936349 0.043494914 0.041659284
0001d0 fd 55 ef ba 15 7d b3 3c 3f 02 1a bd 9c 94 ef bb
       -0.001825988 0.02191023 -0.0375998 -0.007311417
0001e0 21 b5 ad 3b c9 0f b5 bc 0a dd 65 3d d6 50 ce bb
       0.0053011333 -0.022102254 0.056119002 -0.0062962575
0001f0 ef ca 72 bd 9b e2 fa 3a 8d b2 99 bc c2 06 c7 bc
       -0.059275564 0.001914102 -0.018761897 -0.024295215
000200 7f 95 42 3d 8c 1d 51 3d 84 27 03 bd 65 ea 5b bc
       0.04750585 0.05105357 -0.032020107 -0.013422583
000210 b6 81 0b bd c7 78 1c bc ce 10 43 3d 32 d9 87 3c
       -0.03405925 -0.00955028 0.047623448 0.016583059
000220 a7 63 28 bd b0 44 36 bc 28 6a 50 bd f1 c2 b8 bc
       -0.04111066 -0.011124775 -0.05088249 -0.022553893
000230 cb 61 35 bd 0b 7f a2 3c 0e 74 1d 3d e0 e9 40 3c
       -0.044282716 0.01983597 0.038440756 0.01177451
000240 85 3a 0c 3c 7a a2 b1 3c 97 ff 54 bc d6 73 1e 3d
       0.008558874 0.02168392 -0.0130003905 0.03868469
000250 fa e0 09 bd d1 f8 01 3c be 14 80 bb 0a bc 80 3b
       -0.03366182 0.007932858 -0.0039087227 0.003928666
000260 80 05 72 3c 22 49 33 3d b2 96 4c 3d 12 0a 05 3d
       0.014771819 0.043770917 0.0499484 0.032480307
000270 2d dc 0f bd fc 8a a4 bb 2d 2f 32 3c 0b a0 30 bd
       -0.035122085 -0.005021451 0.010875505 -0.04312138
000280 99 04 9c bc 6f bd f1 3c 05 09 2b 3d 62 50 cd 3c
       -0.019045161 0.029509274 0.04175665 0.025062744
000290 1a 36 0b bc 71 07 43 bd ed 4f ab 3b d1 07 e9 3c
       -0.008496786 -0.04761452 0.0052280338 0.02844611
0002a0 91 7f 23 bd f8 28 c8 3c b9 79 55 bd c7 34 2c bd
       -0.03991658 0.024433598 -0.052118037 -0.04204252
0002b0 7e b0 3e 3c c4 a8 0d 3d a2 9c 0b 3c 8e 75 7f 3d
       0.011638759 0.034584776 0.008521231 0.06236797
0002c0 7f e6 ca bc 7d dc 66 bd ac 8c 02 3d f2 ae de 3b
       -0.024768112 -0.056362618 0.031872436 0.0067957575
0002d0 c4 98 8f bc 65 8d 62 bb c4 60 1a 3d 34 4d 40 3d
       -0.017528899 -0.003456914 0.03768994 0.046948627
0002e0 2b 67 29 bd 2e 6a 7c 3c d7 06 5b 3d 9e 18 43 bd
       -0.041358154 0.015406175 0.05347332 -0.0476309
0002f0 b7 4c 4b bd 10 3d 01 3b 93 79 9f bc fe 8e 3b bd
       -0.049633708 0.0019720234 -0.01946715 -0.045790665
000300 40 4f 01 bb b6 b6 20 3d c1 b8 74 3d ae fc 23 3d
       -0.0019731075 0.039236747 0.059746508 0.040035896
000310 11 28 bb 3c 2c 2c 11 3d 5c d2 48 3d 4f 09 16 3d
       0.022846254 0.035442516 0.04902874 0.03662997
000320 48 e9 52 bd 17 22 53 3d 7f 48 e4 3c ea ce e6 3b
       -0.051492006 0.051546182 0.0278666 0.007043709
000330 41 c9 7a bd 6c 66 2a bd c9 2f 86 3d ea eb 86 bc
       -0.061227087 -0.041601583 0.06552083 -0.016469914
000340 65 6c f5 3c a6 ef 4a bd f3 17 b3 3c 46 d8 1b 3d
       0.029958913 -0.049544953 0.021862006 0.03804805
000350 a3 6c a4 bc 42 43 bc 3c 47 5d 44 bd c5 a6 09 3d
       -0.020071333 0.02298129 -0.04794052 0.03360631
000360 02 09 72 bc 73 af 8e 3c b9 0b 81 3c fe 52 30 3c
       -0.014772655 0.017417645 0.01575266 0.010761974
000370 dd c3 b9 bc e1 5a 52 bd ff cb 4f ba 27 1b 25 bd
       -0.022676403 -0.0513562 -0.0007926821 -0.040309098
000380 46 e5 f2 bc bd 80 42 3d 1a 3f 65 bc 9e 78 91 3d
       -0.029650342 0.047486056 -0.013992095 0.07103084
000390 77 37 2e bd a2 0b 2b 3c 6c e3 27 bd b7 26 65 3d
       -0.042533364 0.010439785 -0.04098837 0.055945124
0003a0 59 24 c6 bc 93 14 a0 bb 55 d0 12 bd f1 f3 2e bd
       -0.024187254 -0.004885265 -0.035843212 -0.04271311
0003b0 86 81 fd bc b1 9e ab bc e6 42 71 3d 5a 33 0b bd
       -0.03094555 -0.020949693 0.05890169 -0.03398452
0003c0 66 03 28 3d a5 3a eb bc ba 33 45 bd d6 45 7b 38
       0.041018866 -0.028714487 -0.048145033 5.9908103e-05
0003d0 f8 06 63 bd ae 51 73 bd 5a e1 e2 bc 25 8e 00 3d
       -0.055426568 -0.059404068 -0.027695347 0.03138556
0003e0 71 20 89 bc 3f d4 ef bb 8f bc 03 3a 96 10 5e bc
       -0.016739102 -0.007319003 0.0005025351 -0.013553759
0003f0 6d 7c 3f 3d f4 b9 f7 bb 45 76 67 3c 2d 95 34 3d
       0.04674952 -0.007560009 0.014127319 0.044087578

rnn.bias_hh_l0 f4 [256]
000000 42 ff ff 3c 33 c9 5d bd d6 a1 50 3d 7a 6e 38 3d
       0.031249646 -0.054146957 0.05093559 0.045027234
000010 38 4f 27 bd 8a 30 b3 3c 8c 00 74 3d 8a 44 c9 bc
       -0.040847033 0.021873731 0.059570834 -0.024568815
000020 da 55 12 3d a6 e0 5d 3d 02 45 98 3b 72 47 11 bc
       0.035726406 0.05416932 0.0046468982 -0.008867132
000030 61 f5 28 3d 64 c1 98 bb 6e 15 fb 3c 9b 51 29 3d
       0.041249637 -0.004661726 0.030649867 0.04133759
000040 2c 70 73 3c bb aa 6a bc 05 b8 50 3d da 62 13 bd
       0.014858287 -0.014322932 0.050956745 -0.035982944
000050 6c bd cf bc ae 8d 81 3d 25 c6 09 3d 86 24 65 3c
       -0.025358878 0.063258514 0.03363623 0.013985759
000060 da 44 0e 3b 20 3e 65 3d 4b a1 04 bd 2a 92 73 3d
       0.002170852 0.05596745 -0.032380383 0.059465565
000070 7f 20 3c 3d ec b2 3b 3d 95 38 c8 bc 5a 4d 9b bc
       0.04592943 0.04582493 -0.024441043 -0.018957783
000080 ab 06 0e 3d 1b b2 20 bc 3f a5 3a bd 42 73 4f bd
       0.034674328 -0.009808089 -0.045567747 -0.050647028
000090 a4 b1 70 3d 21 d1 93 3c 2e 16 76 bd ee 98 3b 3d
       0.05876316 0.018044056 -0.060079746 0.045800142
0000a0 92 d7 5a 3d 4d 88 79 bd 9b 58 87 bb e4 c7 43 bc
       0.05342824 -0.060921002 -0.0041304356 -0.011949513
0000b0 fc 2c 3f bd ac 7b 46 bc b8 61 70 3d 44 b5 b9 bb
       -0.04667376 -0.012114447 0.05868694 -0.0056673605
0000c0 58 99 24 3d 52 e5 8b bc de 13 4a bc f3 75 96 3c
       0.040185302 -0.017077122 -0.012333838 0.01836679
0000d0 56 97 0a 3d 28 61 d9 3c 05 ff c3 bc eb 10 42 bd
       0.03383573 0.026535586 -0.023925314 -0.047379415
0000e0 7c 57 c9 bb 12 8d 02 bd 10 a3 1c 3d bb 60 47 bc
       -0.006144462 -0.031872816 0.038241446 -0.012169058
0000f0 2f 56 99 bc 1e 7a 5d 3c 21 21 2b bd 63 26 94 bc
       -0.018717853 0.013517885 -0.04177964 -0.01808471
000100 8c 89 ec 3c fe fc be bb ae e8 92 3c 51 38 12 3d
       0.028874181 -0.005828499 0.017933216 0.03569824
000110 c3 7e d7 3c cc 5b d5 bc 05 a1 7b bd 31 d0 e8 bc
       0.026305562 -0.026044749 -0.061432857 -0.028419586
000120 40 29 23 bb a3 ee 64 bd a2 a1 15 bd 73 ef 31 bd
       -0.0024896413 -0.055891644 -0.0365311 -0.043441247
000130 37 4d 27 bd 4c fc 4c bd 0a a6 fa 3c 4b 00 83 bd
       -0.040845122 -0.050045297 0.030596752 -0.0639654
000140 1b 37 3f bd 43 66 5a 3d 8c 9a ce bc 00 b0 4a bd
       -0.046683412 0.05332018 -0.025220178 -0.049484253
000150 65 1c 69 bd 8f e3 a4 3c 94 21 73 bc e8 91 69 3c
       -0.056911845 0.02012804 -0.014839549 0.014255978
000160 59 1e 99 bc 23 71 41 3d 29 35 5a 3d 05 8d 53 3d
       -0.018691229 0.047227036 0.053273354 0.05164816
000170 90 db 5f bd d4 98 31 3d a4 3a 19 bd cd a3 2b 3d
       -0.05465275 0.04335864 -0.03740944 0.04190426
000180 c8 f1 7a 3d 25 32 78 3d b4 10 7d bd 7c 5a 9e 3c
       0.061265737 0.060594697 -0.061783507 0.019330256
000190 9d 0a 16 bb a3 b4 26 3d cc 61 40 3c dc 04 3e bd
       -0.002289451 0.040699612 0.011742067 -0.046391353
0001a0 f3 28 e7 3c 9e 93 5d bc 51 a7 b7 bc ee c1 22 bc
       0.028217768 -0.013523964 -0.02241865 -0.009933932
0001b0 97 22 a0 3b 21 bd 17 bc 42 b6 08 3d 28 20 39 b8
       0.004886936 -0.0092614 0.03337694 -4.4137385e-05
0001c0 c3 08 67 3d 9b a8 2b bd 8d ee 55 3d c1 b8 61 3d
       0.05640484 -0.04190884 0.052229453 0.055107836
0001d0 88 94 41 bd a7 d6 e4 bc a5 30 b5 bb 40 0b 90 3c
       -0.04726079 -0.027934385 -0.0055294805 0.01758349
0001e0 01 e6 27 bd aa 6c 81 bb ad 59 00 bd 23 94 83 bc
       -0.040990833 -0.0039497213 -0.03133552 -0.016061848
0001f0 c3 b0 74 3c d5 bd ab 3b 47 bd e9 bc 29 b1 c7 ba
       0.014934721 0.0052411356 -0.028532637 -0.0015235293
000200 1c 49 d1 bc 1e e3 a8 bc a0 14 95 3c f7 d3 4b bd
       -0.025547557 -0.02061611 0.018198311 -0.049762692
000210 ef 1e 9d 3c 2d 28 eb 3c 99 c5 d5 3c 8c ec 38 3d
       0.01917979 0.02870568 0.026095198 0.045147464
000220 c8 a9 2a 3d 8a 18 3e 3a 7d 49 42 bd b6 ce 48 3d
       0.041665822 0.00072515814 -0.047433365 0.04902526
000230 0c 4f b0 3c 33 e4 5d bc 10 08 98 bc 2d 50 be ba
       0.021522067 -0.013543176 -0.018558532 -0.0014519744
000240 7a 2f c9 bb e5 72 a7 bb 21 dc 12 bb b6 e7 3a bc
       -0.006139693 -0.005110132 -0.002240904 -0.011407783
000250 1b ee 6c bd a5 38 63 3c dc 8d 5d bd f1 b7 e4 3c
       -0.057844263 0.013868486 -0.054090366 0.027919741
000260 fe a0 db bc b4 e6 07 3d f1 98 0f bd 52 53 0a bc
       -0.026810165 0.033179 -0.035057966 -0.008442717
000270 ac c8 ac 3c 27 4a 1f 3d b5 91 20 bd 64 55 d7 bc
       0.021091782 0.038889077 -0.039201457 -0.026285835
000280 a1 66 44 3d d6 98 4c 3d d6 31 76 3d fd b8 52 bd
       0.047949437 0.049950443 0.06010612 -0.05144595
000290 15 fc 8e 3c b2 a7 0c bc 59 6e 38 3d 7b 90 6a bd
       0.017454186 -0.008584904 0.04502711 -0.057266694
0002a0 c9 31 82 bd 8e fc 19 bc e8 65 20 bd ad 3d a6 3c
       -0.06357152 -0.009398593 -0.039159685 0.020293081
0002b0 56 31 0d 3c 45 b5 64 3d a3 39 ae 3c 24 5b 7e 3d
       0.00861772 0.055836935 0.021267718 0.062098637
0002c0 86 b8 be 3c e7 a6 36 bc 84 8c 61 bd e7 1b aa bc
       0.023281347 -0.011148191 -0.055065647 -0.020765258
0002d0 75 01 ed bb ee 5f dc 3b 72 a3 b7 bc d4 50 43 bd
       -0.0072328397 0.006725303 -0.022416804 -0.047684506
0002e0 94 68 4d 3d b1 4a 1d 3d ee 17 4c bc 1c 4d 31 bc
       0.05014856 0.03840131 -0.012456877 -0.010821607
0002f0 f8 43 80 3d fc 5e 30 bd b4 10 42 bd 21 9a 13 bd
       0.06262964 -0.043059334 -0.04737921 -0.03603566
000300 8b d3 2a bc da 10 2a 3d b9 fa 25 3d f6 3a b1 3c
       -0.010426412 0.041519977 0.04052231 0.02163456
000310 bc 64 66 bd 9b 0b 0d bc 76 0d 1f 3d df 7b 57 3d
       -0.05624841 -0.008608724 0.038831197 0.052608367
000320 e1 2d 07 bd c2 d6 72 bb 4b 36 58 bd 91 9f 8c 3d
       -0.033002738 -0.0037054275 -0.052786153 0.068663724
000330 70 f4 d7 3c 24 1f 53 3d 64 16 4a 3c 0b 96 1a bc
       0.026361674 0.05154337 0.01233444 -0.009435187
000340 44 20 b2 bc 19 5e 1e bb 17 ff 51 3d de 7d 80 3d
       -0.021743901 -0.0024164973 0.051268663 0.06274007
000350 0d 93 4b bd df 64 b6 bb c6 ea 81 3d d0 04 80 3d
       -0.049700785 -0.005566224 0.063436076 0.06250918
000360 46 26 a4 bc b3 d7 38 3c 8d ea 30 bd 2a ef 0f bd
       -0.020037781 0.011281895 -0.043192435 -0.035140194
000370 8d c3 27 bd b6 2e 8c 3c 4b b3 32 3d 17 a0 83 bc
       -0.040957976 0.017112117 0.04362802 -0.016067548
000380 b4 83 0f bd ba 62 91 bc 36 2e bd bc 88 0b 1f 3d
       -0.03503771 -0.017747272 -0.023093324 0.038829356
000390 5a ef c8 bc 3d b4 18 3d ef 41 af 3c 3a 63 97 bc
       -0.024528194 0.037281264 0.021393744 -0.018479932
0003a0 49 cf ed bc da 23 b4 3b 25 dd 3a 3c f4 b6 83 bd
       -0.029029505 0.005497438 0.011405264 -0.0643138
0003b0 f3 f7 3a 3d cc c9 12 bd 4f 34 af 3a da a6 e9 bc
       0.04564662 -0.03583698 0.001336703 -0.028521944
0003c0 20 fe 42 bc 4f b6 d7 bc dc 80 a9 bc 62 8b 95 3c
       -0.011901408 -0.026332049 -0.020691328 0.01825494
0003d0 51 ad 60 bd b6 69 68 3d 11 e7 b2 3c b6 ac 08 3c
       -0.054852787 0.05674144 0.021838697 0.008341959
0003e0 8e 41 19 bd 89 03 2f bd 55 a5 80 3b 44 a2 fb 3c
       -0.037416033 -0.04272798 0.003925959 0.030717023
0003f0 d3 64 d3 3b 61 52 15 3c 7a 21 3f bd 30 8a 66 3c
       0.006451228 0.009113879 -0.046662785 0.014071032

fc.weight f4 [2, 256]
000000 9d 59 f9 3b e4 c4 a2 3c 04 81 c5 bc b7 a0 15 3c
       0.0076095597 0.019869275 -0.024109371 0.009132556
000010 52 1e 14 bd 59 9b 12 3b 22 72 d9 3c 1c d8 4a 3d
       -0.03616173 0.0022370426 0.02654368 0.049522504
000020 08 e7 03 bd 69 84 d2 3c 60 15 d2 bc 1f 73 22 bc
       -0.03220275 0.025697904 -0.025644958 -0.009915142
000030 1f dc 44 3d 2d 39 c3 3c 76 44 51 3d f6 75 8f bd
       0.048061486 0.023830974 0.05109068 -0.07004921
000040 f8 3e aa bc a6 75 71 3c b4 75 a7 bc c8 e5 29 bc
       -0.020781979 0.014737522 -0.020441867 -0.0103697255
000050 12 a8 25 3c f8 8f 69 3d a4 a3 36 bd 3d f5 6a 3d
       0.010110872 0.057022065 -0.044589654 0.057362784
000060 4b 7f 2d bd 28 95 3a bd 9f 04 7a 3c 50 01 53 bd
       -0.042357724 -0.045552403 0.015259891 -0.051514924
000070 01 b5 3d 3d f7 bf b2 bc 36 57 f3 3b 70 78 d2 bc
       0.046315197 -0.021820052 0.007426168 -0.025692195
000080 43 20 d0 3c ea 82 3d bd 9b ac 1f 3d 72 25 d8 bb
       0.025406009 -0.046267428 0.03898297 -0.0065962607
000090 15 11 86 bb 53 75 71 bd 54 d0 31 bd 54 3f 10 bd
       -0.004091392 -0.05894978 -0.043411568 -0.035216644
0000a0 50 b0 49 3d fc 9b 08 3d 5d cf 74 3d dc 33 c0 3b
       0.04924041 0.033351883 0.05976807 0.005865557
0000b0 99 d8 7d bd 9d b9 cb bb d1 db 09 bd cd 94 11 3d
       -0.06197414 -0.006217195 -0.0336569 0.035542298
0000c0 75 fe 01 3d de d7 88 3d d9 cb 02 3c 7f 4b 67 3d
       0.03173681 0.066817984 0.007983171 0.056468483
0000d0 26 16 3e 3d 47 f6 7c bd 5b 00 7c bd 9b ce 2a 3d
       0.04640784 -0.061758306 -0.061523777 0.04170094
0000e0 c7 e3 08 bd 91 90 5a ba 04 32 55 bd 4c 6d 35 bd
       -0.03342035 -0.0008337582 -0.05204965 -0.044293687
0000f0 1f 50 15 bd b2 6d b9 bc c8 f4 51 3d 02 ad 5a 3d
       -0.036453363 -0.022635315 0.051258832 0.05338765
000100 f8 71 49 bd 56 b5 17 bd 6d 3a 03 bd 20 2e 80 bd
       -0.049180955 -0.03703817 -0.03203814 -0.06258798
000110 a1 26 e6 bc 97 8c a0 bc 1a cf c7 bc cf 7a 5d bd
       -0.028094592 -0.019598288 -0.024390746 -0.054072198
000120 80 f1 91 bc cc da ae bb 7c aa 66 3a 98 a4 3a b9
       -0.017815351 -0.005336141 0.0008799208 -0.00017799658
000130 74 fc 80 bc 4a aa 7f bd f1 38 4e 3d 0a 41 0b bd
       -0.015745379 -0.06241826 0.050347272 -0.033997573
000140 f3 64 f5 bb ad 4a 3d bc 1c c3 58 3d 8a bd 1e 3c
       -0.0074888407 -0.011553449 0.052920446 0.009688744
000150 c7 6e 59 bd 48 a0 44 3d 6a 87 49 bd 21 63 5f bd
       -0.05308416 0.04800442 -0.049201407 -0.054537896
000160 8f c5 1c 3d b1 fd c0 3c c4 c9 03 bb 6a d8 1a bc
       0.038274344 0.02355847 -0.0020109275 -0.009451011
000170 f4 c2 75 3d 6d 63 38 3d 4f aa c2 bc 41 66 6f bd
       0.060000375 0.045016695 -0.02376285 -0.058447126
000180 4d 6e 59 3c bf 8b 9b 3c 0f b2 8c 3c 4b 65 9f 3c
       0.013270927 0.018987535 0.017174749 0.01945748
000190 52 32 3a ba 6d 94 76 bd 84 1b a4 bc ea 53 33 3d
       -0.0007102835 -0.060200144 -0.020032652 0.0437812
0001a0 bc 98 67 bc ef ae ad 3c 9c 70 60 3d cb ee 1b bd
       -0.014135536 0.021201579 0.054794893 -0.038069528
0001b0 41 47 b4 ba 61 8a 4e 3c d9 14 12 3d d3 0a 28 bd
       -0.0013754145 0.012606234 0.035664413 -0.041025948
0001c0 d6 60 1e bd c4 ec 78 3d d2 e9 9a 3c 25 ab 6c bd
       -0.03866657 0.060772672 0.018910322 -0.057780404
0001d0 78 9b 53 bd b7 fd d2 bc 7f f7 37 bc 74 12 5f bb
       -0.05166194 -0.025755746 -0.011228441 -0.0034038099
0001e0 81 ad 05 3b 3e b1 61 bd a9 3e f8 bc 53 c7 95 3c
       0.0020397606 -0.055100672 -0.030303316 0.018283522
0001f0 78 26 4a 3c c5 a0 86 bc 19 46 4e 3b 58 e8 52 bd
       0.012338273 -0.016434083 0.0031474887 -0.05149111
000200 ac 63 6b 3a 7e a0 70 3d 8c 4a 26 3d 79 93 4e bc
       0.0008979391 0.058746807 0.040598437 -0.012608402
000210 6b 50 ea bc a1 b2 39 3d 48 d4 09 bd 71 a6 eb bc
       -0.0286028 0.04533637 -0.033649713 -0.028765889
000220 d5 df 4f 3d a7 75 9b 3c f0 b1 78 bc 71 02 b3 3c
       0.050750572 0.018977 -0.015179142 0.02185175
000230 d7 45 04 3c c1 02 9d 3d 8c 18 58 bd 88 60 1e 3b
       0.008073292 0.07666541 -0.052757785 0.0024166424
000240 54 97 a4 3c e0 af 09 bc a4 d5 0b bd 03 35 55 3d
       0.02009169 -0.008403748 -0.03413929 0.05205251
000250 eb cf 01 3d 0c b8 1f bd eb 6f e4 bb cf e2 f2 bc
       0.031692427 -0.03899388 -0.0069713495 -0.029649166
000260 4f 28 37 3d 7a 05 4a bd ec cf 79 bc b1 84 3c 3c
       0.044716176 -0.04932163 -0.015247326 0.0115062455
000270 6e ba 23 bd ec 77 cf 3b b6 68 d8 3c 32 3e 10 3d
       -0.039972715 0.0063314345 0.026417118 0.035215564
000280 81 4b 83 bd 33 fb 3b bd 64 13 85 bd c8 f7 47 3d
       -0.064108856 -0.04589386 -0.06497839 0.048820287
000290 cb 39 7a bc d9 b2 4d bd 73 07 c7 3c e0 0c 40 3d
       -0.015272568 -0.05021939 0.024295544 0.04688728
0002a0 f1 d0 7b 3d 29 75 e7 bc 38 c1 5f 3c bf 0d 0b bc
       0.06147856 -0.028254109 0.013656907 -0.008487164
0002b0 65 d1 c5 3c 1b a1 43 bd 7b 51 17 3d 99 dd 2d 3d
       0.024147699 -0.047761064 0.03694294 0.04244766
0002c0 09 fc 02 3d 18 e6 f5 bc ec 78 34 bd 0d 40 ed bb
       0.03197864 -0.030016944 -0.044060633 -0.0072403015
0002d0 f9 fd 0d bd f5 a6 3e 3d 11 0b 9b 3c e1 8a 07 3c
       -0.034666035 0.04654594 0.018926175 0.008272857
0002e0 08 f8 35 bd 5f 03 94 3d 2b c5 21 3b 0c 23 38 3d
       -0.044425994 0.072272055 0.0024684172 0.0449553
0002f0 ba 82 0c 3d a7 b1 a1 bc 0f 1d 0a 3d dc 7b 95 3c
       0.034304358 -0.019738032 0.03371912 0.018247537
000300 67 2d 28 3d 6b 40 60 bc e3 5b 0a ba 43 b8 fd bc
       0.041058924 -0.013687233 -0.00052779744 -0.030971652
000310 75 f1 82 bc d7 e4 cd bc f0 dd 49 3d e1 60 e0 bc
       -0.015984276 -0.025133533 0.04928392 -0.027389945
000320 d5 fb ec 3c de 60 e0 bc e2 22 25 3d 4d ba ef 3b
       0.028928677 -0.02738994 0.04031647 0.00731591
000330 05 3e 25 ba 3f 67 3e bd 99 1c 5f bc 4a 17 e6 bc
       -0.0006303492 -0.046485182 -0.013617658 -0.028087277
000340 95 63 3d 3d 6b 5c b2 3c 24 7d 60 bd c5 a6 f8 3c
       0.046237547 0.021772584 -0.054806843 0.03035296
000350 39 f8 2d bd db 4c 4b bc c6 a3 58 bd 28 55 59 3d
       -0.04247305 -0.0124084605 -0.05289056 0.053059727
000360 ff 51 51 bd c9 11 44 bb 2f c2 e6 bc 21 ce 7c bd
       -0.05110359 -0.0029917827 -0.028168766 -0.061720017
000370 7b aa 26 3d af 0d da bc a0 d9 d4 bc 4c e1 06 3d
       0.040689927 -0.026617853 -0.025982678 0.032929704
000380 0f b8 77 bc c3 3b 9e bb 89 f2 54 3d 01 bd 4d bd
       -0.015119567 -0.0048289015 0.051989112 -0.050229076
000390 de fd 40 3d 52 dd 4b bd ef b2 50 bc 1f fc 70 3d
       0.047117107 -0.049771614 -0.012737974 0.05883419
0003a0 e0 a6 3a 3d 1d 1d 42 39 5d dc 31 3d e6 b7 81 3c
       0.0455693 0.00018512127 0.043423045 0.01583476
0003b0 ed 79 12 3b fe 84 fa 3c 33 04 77 bc 8a 89 df bb
       0.0022350505 0.030580994 -0.015076685 -0.006821816
0003c0 59 98 f1 bb e8 8d 9f bc 20 50 d5 bc 42 39 30 bd
       -0.0073728976 -0.019476846 -0.026039183 -0.043023355
0003d0 07 93 dd 3c 11 dc 82 3b 04 bc fd bc ea 70 c5 bc
       0.027047647 0.003993519 -0.030973442 -0.024101693
0003e0 ae 45 c8 bb ce ae 9c 3c 95 75 4c bd 1a 68 69 3b
       -0.006111822 0.019126322 -0.049916822 0.0035615028
0003f0 ba cf 05 3d ce 43 64 3d 8b e4 6a 3b 4c 13 0c 3d
       0.032668807 0.055728726 0.0035841789 0.03419809

fc.bias f4 [2]
000000 44 20 22 bc 84 7d 1a bd
       -0.009895388 -0.037717357
